Model: "dct_cnn_lo_hist"
_________________________________________________________________
 Layer (type)                Output Shape              Param #   
=================================================================
 input_1 (InputLayer)        [(None, 369, 1)]          0         
                                                                 
 conv1d (Conv1D)             (None, 367, 100)          400       
                                                                 
 max_pooling1d (MaxPooling1D  (None, 183, 100)         0         
 )                                                               
                                                                 
 conv1d_1 (Conv1D)           (None, 181, 100)          30100     
                                                                 
 max_pooling1d_1 (MaxPooling  (None, 90, 100)          0         
 1D)                                                             
                                                                 
 flatten (Flatten)           (None, 9000)              0         
                                                                 
 dense (Dense)               (None, 256)               2304256   
                                                                 
 dropout (Dropout)           (None, 256)               0         
                                                                 
 dense_1 (Dense)             (None, 256)               65792     
                                                                 
 dropout_1 (Dropout)         (None, 256)               0         
                                                                 
 dense_2 (Dense)             (None, 6)                 1542      
                                                                 
=================================================================
Total params: 2,402,090
Trainable params: 2,402,090
Non-trainable params: 0
_________________________________________________________________
Epoch 1/10
17194/17194 [==============================] - 51s 3ms/step - loss: 0.7325 - accuracy: 0.7683 - val_loss: 0.2539 - val_accuracy: 0.9418
…
WARNING:absl:Found untraced functions such as _jit_compiled_convolution_op, _jit_compiled_convolution_op while saving (showing 2 of 2). These functions will not be directly callable after loading.
python single_input_driver.py -t -d  1893.39s user 219.46s system 435% cpu 8:04.63 total


Model: "dct_cnn_mid_hist"
_________________________________________________________________
 Layer (type)                Output Shape              Param #   
=================================================================
 input_1 (InputLayer)        [(None, 909, 1)]          0         
                                                                 
 conv1d (Conv1D)             (None, 907, 100)          400       
                                                                 
 max_pooling1d (MaxPooling1D  (None, 453, 100)         0         
 )                                                               
                                                                 
 conv1d_1 (Conv1D)           (None, 451, 100)          30100     
                                                                 
 max_pooling1d_1 (MaxPooling  (None, 225, 100)         0         
 1D)                                                             
                                                                 
 flatten (Flatten)           (None, 22500)             0         
                                                                 
 dense (Dense)               (None, 256)               5760256   
                                                                 
 dropout (Dropout)           (None, 256)               0         
                                                                 
 dense_1 (Dense)             (None, 256)               65792     
                                                                 
 dropout_1 (Dropout)         (None, 256)               0         
                                                                 
 dense_2 (Dense)             (None, 6)                 1542      
                                                                 
=================================================================
Total params: 5,858,090
Trainable params: 5,858,090
Non-trainable params: 0
_________________________________________________________________
Epoch 1/10
17194/17194 [==============================] - 74s 4ms/step - loss: 0.5889 - accuracy: 0.8175 - val_loss: 0.1524 - val_accuracy: 0.9773
…
WARNING:absl:Found untraced functions such as _jit_compiled_convolution_op, _jit_compiled_convolution_op while saving (showing 2 of 2). These functions will not be directly callable after loading.
python single_input_driver.py -t -d  2038.05s user 236.29s system 323% cpu 11:43.04 total

Model: "dct_cnn_hi_hist"
_________________________________________________________________
 Layer (type)                Output Shape              Param #   
=================================================================
 input_1 (InputLayer)        [(None, 1809, 1)]         0         
                                                                 
 conv1d (Conv1D)             (None, 1807, 100)         400       
                                                                 
 max_pooling1d (MaxPooling1D  (None, 903, 100)         0         
 )                                                               
                                                                 
 conv1d_1 (Conv1D)           (None, 901, 100)          30100     
                                                                 
 max_pooling1d_1 (MaxPooling  (None, 450, 100)         0         
 1D)                                                             
                                                                 
 flatten (Flatten)           (None, 45000)             0         
                                                                 
 dense (Dense)               (None, 256)               11520256  
                                                                 
 dropout (Dropout)           (None, 256)               0         
                                                                 
 dense_1 (Dense)             (None, 256)               65792     
                                                                 
 dropout_1 (Dropout)         (None, 256)               0         
                                                                 
 dense_2 (Dense)             (None, 6)                 1542      
                                                                 
=================================================================
Total params: 11,618,090
Trainable params: 11,618,090
Non-trainable params: 0
_________________________________________________________________
Epoch 1/10
17194/17194 [==============================] - 119s 7ms/step - loss: 0.5119 - accuracy: 0.8458 - val_loss: 0.1340 - val_accuracy: 0.9741
…
WARNING:absl:Found untraced functions such as _jit_compiled_convolution_op, _jit_compiled_convolution_op while saving (showing 2 of 2). These functions will not be directly callable after loading.
python single_input_driver.py -t -d  2463.01s user 394.93s system 250% cpu 18:58.74 total


Model: "dct_cnn_mid_sf_only"
_________________________________________________________________
 Layer (type)                Output Shape              Param #   
=================================================================
 input_1 (InputLayer)        [(None, 3333, 1)]         0         
                                                                 
 conv1d (Conv1D)             (None, 3331, 100)         400       
                                                                 
 max_pooling1d (MaxPooling1D  (None, 1665, 100)        0         
 )                                                               
                                                                 
 conv1d_1 (Conv1D)           (None, 1663, 100)         30100     
                                                                 
 max_pooling1d_1 (MaxPooling  (None, 831, 100)         0         
 1D)                                                             
                                                                 
 flatten (Flatten)           (None, 83100)             0         
                                                                 
 dense (Dense)               (None, 256)               21273856  
                                                                 
 dropout (Dropout)           (None, 256)               0         
                                                                 
 dense_1 (Dense)             (None, 256)               65792     
                                                                 
 dropout_1 (Dropout)         (None, 256)               0         
                                                                 
 dense_2 (Dense)             (None, 6)                 1542      
                                                                 
=================================================================
Total params: 21,371,690
Trainable params: 21,371,690
Non-trainable params: 0
_________________________________________________________________
Epoch 1/10
17194/17194 [==============================] - 197s 11ms/step - loss: 0.2853 - accuracy: 0.9166 - val_loss: 0.1302 - val_accuracy: 0.9596
…
WARNING:absl:Found untraced functions such as _jit_compiled_convolution_op, _jit_compiled_convolution_op while saving (showing 2 of 2). These functions will not be directly callable after loading.
python single_input_driver.py -t -d  3282.45s user 511.09s system 190% cpu 33:12.56 total

Model: "dct_cnn_lo_and_mid_sf"
_________________________________________________________________
 Layer (type)                Output Shape              Param #   
=================================================================
 input_1 (InputLayer)        [(None, 4343, 1)]         0         
                                                                 
 conv1d (Conv1D)             (None, 4341, 100)         400       
                                                                 
 max_pooling1d (MaxPooling1D  (None, 2170, 100)        0         
 )                                                               
                                                                 
 conv1d_1 (Conv1D)           (None, 2168, 100)         30100     
                                                                 
 max_pooling1d_1 (MaxPooling  (None, 1084, 100)        0         
 1D)                                                             
                                                                 
 flatten (Flatten)           (None, 108400)            0         
                                                                 
 dense (Dense)               (None, 256)               27750656  
                                                                 
 dropout (Dropout)           (None, 256)               0         
                                                                 
 dense_1 (Dense)             (None, 256)               65792     
                                                                 
 dropout_1 (Dropout)         (None, 256)               0         
                                                                 
 dense_2 (Dense)             (None, 6)                 1542      
                                                                 
=================================================================
Total params: 27,848,490
Trainable params: 27,848,490
Non-trainable params: 0
_________________________________________________________________
Epoch 1/10
17194/17194 [==============================] - 245s 14ms/step - loss: 0.2376 - accuracy: 0.9353 - val_loss: 0.0867 - val_accuracy: 0.9756
…
WARNING:absl:Found untraced functions such as _jit_compiled_convolution_op, _jit_compiled_convolution_op while saving (showing 2 of 2). These functions will not be directly callable after loading.
python single_input_driver.py -t -d  3560.87s user 587.25s system 170% cpu 40:31.51 total


Model: "dct_cnn_2_conv"
_________________________________________________________________
 Layer (type)                Output Shape              Param #   
=================================================================
 input_1 (InputLayer)        [(None, 909, 1)]          0         
                                                                 
 conv1d (Conv1D)             (None, 908, 100)          300       
                                                                 
 max_pooling1d (MaxPooling1D  (None, 454, 100)         0         
 )                                                               
                                                                 
 conv1d_1 (Conv1D)           (None, 453, 100)          20100     
                                                                 
 max_pooling1d_1 (MaxPooling  (None, 226, 100)         0         
 1D)                                                             
                                                                 
 flatten (Flatten)           (None, 22600)             0         
                                                                 
 dense (Dense)               (None, 256)               5785856   
                                                                 
 dropout (Dropout)           (None, 256)               0         
                                                                 
 dense_1 (Dense)             (None, 256)               65792     
                                                                 
 dropout_1 (Dropout)         (None, 256)               0         
                                                                 
 dense_2 (Dense)             (None, 6)                 1542      
                                                                 
=================================================================
Total params: 5,873,590
Trainable params: 5,873,590
Non-trainable params: 0
_________________________________________________________________
Epoch 1/10
17194/17194 [==============================] - 74s 4ms/step - loss: 0.6378 - accuracy: 0.8002 - val_loss: 0.1733 - val_accuracy: 0.9725
…
WARNING:absl:Found untraced functions such as _jit_compiled_convolution_op, _jit_compiled_convolution_op while saving (showing 2 of 2). These functions will not be directly callable after loading.
python single_input_driver.py -t -d  2052.75s user 257.89s system 321% cpu 11:59.56 total

Model: "dct_cnn_5_conv"
_________________________________________________________________
 Layer (type)                Output Shape              Param #   
=================================================================
 input_1 (InputLayer)        [(None, 909, 1)]          0         
                                                                 
 conv1d (Conv1D)             (None, 905, 100)          600       
                                                                 
 max_pooling1d (MaxPooling1D  (None, 452, 100)         0         
 )                                                               
                                                                 
 conv1d_1 (Conv1D)           (None, 448, 100)          50100     
                                                                 
 max_pooling1d_1 (MaxPooling  (None, 224, 100)         0         
 1D)                                                             
                                                                 
 flatten (Flatten)           (None, 22400)             0         
                                                                 
 dense (Dense)               (None, 256)               5734656   
                                                                 
 dropout (Dropout)           (None, 256)               0         
                                                                 
 dense_1 (Dense)             (None, 256)               65792     
                                                                 
 dropout_1 (Dropout)         (None, 256)               0         
                                                                 
 dense_2 (Dense)             (None, 6)                 1542      
                                                                 
=================================================================
Total params: 5,852,690
Trainable params: 5,852,690
Non-trainable params: 0
_________________________________________________________________
Epoch 1/10
17194/17194 [==============================] - 79s 4ms/step - loss: 0.5484 - accuracy: 0.8325 - val_loss: 0.1320 - val_accuracy: 0.9768
…
WARNING:absl:Found untraced functions such as _jit_compiled_convolution_op, _jit_compiled_convolution_op while saving (showing 2 of 2). These functions will not be directly callable after loading.
python single_input_driver.py -t -d  2071.36s user 259.33s system 306% cpu 12:39.32 total

Model: "dct_cnn_2_dense"
_________________________________________________________________
 Layer (type)                Output Shape              Param #   
=================================================================
 input_1 (InputLayer)        [(None, 909, 1)]          0         
                                                                 
 conv1d (Conv1D)             (None, 907, 100)          400       
                                                                 
 max_pooling1d (MaxPooling1D  (None, 453, 100)         0         
 )                                                               
                                                                 
 conv1d_1 (Conv1D)           (None, 451, 100)          30100     
                                                                 
 max_pooling1d_1 (MaxPooling  (None, 225, 100)         0         
 1D)                                                             
                                                                 
 flatten (Flatten)           (None, 22500)             0         
                                                                 
 dense (Dense)               (None, 1000)              22501000  
                                                                 
 dropout (Dropout)           (None, 1000)              0         
                                                                 
 dense_1 (Dense)             (None, 1000)              1001000   
                                                                 
 dropout_1 (Dropout)         (None, 1000)              0         
                                                                 
 dense_2 (Dense)             (None, 6)                 6006      
                                                                 
=================================================================
Total params: 23,538,506
Trainable params: 23,538,506
Non-trainable params: 0
_________________________________________________________________
Epoch 1/10
17194/17194 [==============================] - 108s 6ms/step - loss: 0.3031 - accuracy: 0.9075 - val_loss: 0.1091 - val_accuracy: 0.9751
…
WARNING:absl:Found untraced functions such as _jit_compiled_convolution_op, _jit_compiled_convolution_op while saving (showing 2 of 2). These functions will not be directly callable after loading.
python single_input_driver.py -t -d  2081.70s user 258.34s system 312% cpu 12:28.23 total


Model: "prnu_noise"
_________________________________________________________________
 Layer (type)                Output Shape              Param #   
=================================================================
 input_1 (InputLayer)        [(None, 64, 64, 1)]       0         
                                                                 
 conv2d (Conv2D)             (None, 62, 62, 32)        320       
                                                                 
 conv2d_1 (Conv2D)           (None, 60, 60, 32)        9248      
                                                                 
 max_pooling2d (MaxPooling2D  (None, 30, 30, 32)       0         
 )                                                               
                                                                 
 dropout (Dropout)           (None, 30, 30, 32)        0         
                                                                 
 conv2d_2 (Conv2D)           (None, 28, 28, 64)        18496     
                                                                 
 conv2d_3 (Conv2D)           (None, 26, 26, 64)        36928     
                                                                 
 max_pooling2d_1 (MaxPooling  (None, 13, 13, 64)       0         
 2D)                                                             
                                                                 
 dropout_1 (Dropout)         (None, 13, 13, 64)        0         
                                                                 
 flatten (Flatten)           (None, 10816)             0         
                                                                 
 dense (Dense)               (None, 256)               2769152   
                                                                 
 dropout_2 (Dropout)         (None, 256)               0         
                                                                 
 dense_1 (Dense)             (None, 6)                 1542      
                                                                 
=================================================================
Total params: 2,835,686
Trainable params: 2,835,686
Non-trainable params: 0
_________________________________________________________________
Epoch 1/10
17194/17194 [==============================] - 125s 7ms/step - loss: 1.2366 - accuracy: 0.5820 - val_loss: 1.0464 - val_accuracy: 0.7447
…
python single_input_driver.py -t -n  3501.55s user 1883.76s system 465% cpu 19:17.27 total


Model: "fusionNET"
__________________________________________________________________________________________________
 Layer (type)                   Output Shape         Param #     Connected to                     
==================================================================================================
 input_2 (InputLayer)           [(None, 64, 64, 1)]  0           []                               
                                                                                                  
 conv2d (Conv2D)                (None, 62, 62, 32)   320         ['input_2[0][0]']                
                                                                                                  
 conv2d_1 (Conv2D)              (None, 60, 60, 32)   9248        ['conv2d[0][0]']                 
                                                                                                  
 max_pooling2d (MaxPooling2D)   (None, 30, 30, 32)   0           ['conv2d_1[0][0]']               
                                                                                                  
 input_1 (InputLayer)           [(None, 909, 1)]     0           []                               
                                                                                                  
 dropout_1 (Dropout)            (None, 30, 30, 32)   0           ['max_pooling2d[0][0]']          
                                                                                                  
 conv1d (Conv1D)                (None, 907, 100)     400         ['input_1[0][0]']                
                                                                                                  
 conv2d_2 (Conv2D)              (None, 28, 28, 64)   18496       ['dropout_1[0][0]']              
                                                                                                  
 max_pooling1d (MaxPooling1D)   (None, 453, 100)     0           ['conv1d[0][0]']                 
                                                                                                  
 conv2d_3 (Conv2D)              (None, 26, 26, 64)   36928       ['conv2d_2[0][0]']               
                                                                                                  
 conv1d_1 (Conv1D)              (None, 451, 100)     30100       ['max_pooling1d[0][0]']          
                                                                                                  
 max_pooling2d_1 (MaxPooling2D)  (None, 13, 13, 64)  0           ['conv2d_3[0][0]']               
                                                                                                  
 max_pooling1d_1 (MaxPooling1D)  (None, 225, 100)    0           ['conv1d_1[0][0]']               
                                                                                                  
 dropout_2 (Dropout)            (None, 13, 13, 64)   0           ['max_pooling2d_1[0][0]']        
                                                                                                  
 dense (Dense)                  (None, 225, 256)     25856       ['max_pooling1d_1[0][0]']        
                                                                                                  
 flatten_1 (Flatten)            (None, 10816)        0           ['dropout_2[0][0]']              
                                                                                                  
 flatten (Flatten)              (None, 57600)        0           ['dense[0][0]']                  
                                                                                                  
 dense_1 (Dense)                (None, 256)          2769152     ['flatten_1[0][0]']              
                                                                                                  
 dropout (Dropout)              (None, 57600)        0           ['flatten[0][0]']                
                                                                                                  
 dropout_3 (Dropout)            (None, 256)          0           ['dense_1[0][0]']                
                                                                                                  
 concatenate (Concatenate)      (None, 57856)        0           ['dropout[0][0]',                
                                                                  'dropout_3[0][0]']              
                                                                                                  
 dense_2 (Dense)                (None, 512)          29622784    ['concatenate[0][0]']            
                                                                                                  
 dense_3 (Dense)                (None, 6)            3078        ['dense_2[0][0]']                
                                                                                                  
==================================================================================================
Total params: 32,516,362
Trainable params: 32,516,362
Non-trainable params: 0
__________________________________________________________________________________________________
…
